model/keypoint_classifier/keypoint_classifier.tflite (tflite, 7360 bytes, 6 tensors)

sequential/dense_2/BiasAdd/ReadVariableOp/resource f4 [27]
0	0xbf1698ce	-0.5882691
1	0x3c4063f8	0.011742584
2	0xbf6e3c0c	-0.93060374
3	0x3f1ca552	0.6118976
4	0x3e4d6072	0.20056322
5	0x3e9bb5cb	0.30412135
6	0xbef8304a	-0.48474342
7	0xbe8ea706	-0.27861804
8	0x3f57909f	0.8420505
9	0x3e2d01db	0.16895239
10	0xbe5e6d8d	-0.21721478
11	0x3fb88f1a	1.4418671
12	0xbecaf594	-0.39640486
13	0xbf090490	-0.53522587
14	0xbf9a8fb1	-1.2075101
15	0xbf0379c7	-0.5135769
16	0x3f176094	0.5913174
17	0x3ed60ff3	0.41809043
18	0xbf55b235	-0.8347505
19	0xbf84a248	-1.0362024
20	0x3e8a9a8f	0.27071044
21	0x3f5fe3c4	0.8745692
22	0xbf0d5ad8	-0.5521674
23	0x3fbba8d3	1.4660896
24	0x3e196867	0.14981233
25	0x3e69ae70	0.22820449
26	0xbf387548	-0.72053957

sequential/dense_1/BiasAdd/ReadVariableOp/resource f4 [10]
0	0x3d9aea01	0.07564164
1	0xbc086da3	-0.008326921
2	0x3f0d46c8	0.5518613
3	0x3fc51e4a	1.5399868
4	0x3f3a7f28	0.72850275
5	0x3fa4082b	1.2814993
6	0x3f06026d	0.5234745
7	0xbe6a5960	-0.22885656
8	0x3ff8a1b6	1.942435
9	0xbf2fd8f2	-0.6869041

sequential/dense/BiasAdd/ReadVariableOp/resource f4 [20]
0	0x3e8f3134	0.27967227
1	0xbf7b9a07	-0.982819
2	0xbea75707	-0.32683584
3	0xbf41f14e	-0.75758827
4	0x3ee8cb92	0.45467812
5	0xbf00c3d9	-0.5029884
6	0xbf27dfec	-0.6557605
7	0x3e694e13	0.22783689
8	0xbee9360c	-0.45549047
9	0x3e800b16	0.25008458
10	0xbff29418	-1.8951445
11	0xbf1acb41	-0.6046639
12	0x3ef25be4	0.47335732
13	0xbf1c76ca	-0.6111876
14	0x3eb6935e	0.35659307
15	0x3ec83262	0.3910094
16	0xbfc05218	-1.5025053
17	0xbf3075a3	-0.689295
18	0x3f45bbb9	0.7723957
19	0xbee890c2	-0.4542294

sequential/dense/MatMul f4 [20, 42]
0	0xbe341137	-0.17584692
1	0x3c446240	0.011986315
2	0xbe83d66e	-0.25749534
3	0x3e555e90	0.20836854
4	0xbe8741a4	-0.26417267
5	0x3e9e0c86	0.3086893
6	0xbc66564a	-0.014058659
7	0x3e20c194	0.15698844
8	0xbe7a8a4e	-0.24466822
9	0x3e078842	0.13235572
10	0x3da3e03e	0.08001755
11	0x3ed3e62a	0.4138654
12	0xbc3feb42	-0.011713805
13	0x3f1f27a9	0.6216989
14	0x3dda2d72	0.10653199
15	0x3ebd1ba9	0.36935166
16	0x3c5beaed	0.01342271
17	0x3ed8f7e9	0.4237664
18	0x3e366235	0.178109
19	0x3f0f215d	0.55910283
20	0xbdb8764f	-0.090069406
21	0x3f3f21b6	0.74660814
22	0xbdb35145	-0.08755735
23	0x3f924cc5	1.1429678
24	0xbbc1a6c7	-0.005909774
25	0x3fa52c72	1.2904189
26	0x3d8f97c5	0.070113696
27	0x3f658be5	0.8966659
28	0x3d218fa8	0.039443642
29	0x3f77acf3	0.96748275
30	0xbe6fea8f	-0.23429321
31	0x3fb92ba7	1.4466447
32	0xbe5c9056	-0.21539435
33	0x3fb78d6e	1.4340036
34	0x3dd39bc3	0.103324436
35	0x3f8db29f	1.1070136
36	0x3dd4bc4c	0.10387477
37	0x3f43626a	0.7632204
38	0x3d809f12	0.0628034
39	0x3f41254e	0.7544755
40	0x3b92635f	0.0044674124
41	0x3f9c71e3	1.2222255
42	0xbe243524	-0.16035897
43	0xbdaae164	-0.08343771
44	0xbe1a93dc	-0.15095466
45	0x3eda6c40	0.42660713
46	0xbe981b89	-0.29708508
47	0xbeca1acb	-0.39473566
48	0xbf4d3ed2	-0.8017398
49	0xbea23b5e	-0.3168592
50	0xbf8b49dd	-1.0881916
51	0xbe3567fb	-0.17715447
52	0xbd9c65b4	-0.07636586
53	0xbd1799c4	-0.037011877
54	0xbc909f13	-0.017653977
55	0xbcfd3b3e	-0.030912038
56	0x3dacfceb	0.08446678
57	0x3da5ac04	0.0808945
58	0x3df08d2f	0.11745679
59	0x3e0d532b	0.13801257
60	0xbdc67a75	-0.096913256
61	0xbd62ae9d	-0.055342305
62	0x3d59a0bd	0.053131808
63	0xbca45917	-0.020062013
64	0x3e4e31b2	0.20136145
65	0x3ce50855	0.027958075
66	0x3e8410b5	0.25793996
67	0x3ca36d84	0.019949682
68	0x3f4bf1c8	0.79665804
69	0xbddc6f32	-0.10763396
70	0x3e84e43b	0.25955376
71	0xbd02d833	-0.031944465
72	0x3eaaa735	0.33330694
73	0x3d101c56	0.035183273
74	0x3de7640f	0.112983815
75	0x3d445b32	0.047938533
76	0x3f0f1374	0.5588906
77	0xbe648f41	-0.22320272
78	0x3f4e54b9	0.80598027
79	0xbe1cc91b	-0.1531109
80	0x3fc3cec7	1.5297478
81	0xbe366349	-0.17811312
82	0x3fec7eca	1.8476193
83	0xbe4ea3c4	-0.20179659
84	0x3d9b70f8	0.075899065
85	0xbe90b6ec	-0.28264558
86	0xbceedca6	-0.029157948
87	0xbe6fd005	-0.23419197
88	0x3d81253c	0.0630593
89	0x3d7677e1	0.06017292
90	0x3c7e774c	0.015531372
91	0xba952b77	-0.0011380751
92	0x3d5ac665	0.05341186
93	0x3d32f613	0.043691706
94	0x3e8dd6d2	0.27702957
95	0x3dd993c1	0.10623885
96	0x3e7bf3b0	0.24604678
97	0x3d9ae8fb	0.07563969
98	0x3eaa23a4	0.33230317
99	0x3e3067b0	0.17227054
100	0x3eadac7f	0.33920667
101	0x3e90ae7c	0.2825812
102	0x3e97d459	0.29654196
103	0x3e000e39	0.12505426
104	0x3ea8e09b	0.3298386
105	0xbc83990a	-0.016064186
106	0x3e8639fa	0.26216108
107	0x3cb620b0	0.022232383
108	0x3d8f981d	0.07011435
109	0x3e4365e4	0.19081837
110	0xbeabd87b	-0.335636
111	0x3cb7404d	0.022369528
112	0xbbe801d3	-0.0070802956
113	0xbe290faa	-0.16509882
114	0xbed4d2fe	-0.41567224
115	0xbe549ed0	-0.20763707
116	0xbf9a72f2	-1.2066329
117	0x3d99f3d4	0.0751721
118	0xbe94e8e1	-0.29083923
119	0xbdb9d7fe	-0.090744
120	0x3d67c6be	0.05658602
121	0xbf1f4c44	-0.6222575
122	0xbe688726	-0.22707805
123	0xbfc482d6	-1.5352428
124	0xbf305638	-0.6888156
125	0xbfb61c84	-1.4227452
126	0xbe04c637	-0.12966238
127	0x3d9bbc10	0.076042295
128	0xbdc3776a	-0.09544261
129	0xbea413c1	-0.3204632
130	0xbe5a4506	-0.21315393
131	0xbe8f28f7	-0.2796094
132	0xbf7cd7fc	-0.98767066
133	0xbdfe0eb2	-0.12405147
134	0xbfb893fd	-1.4420162
135	0xbdb3b330	-0.08774412
136	0x3d137e7e	0.036009304
137	0xbd807038	-0.06271404
138	0xbbdcd702	-0.006739498
139	0x3c252949	0.010080644
140	0x3e0a9e5a	0.13536969
141	0x3d87d5b6	0.06632559
142	0x3e0be857	0.1366285
143	0x3dbf5bdd	0.093436934
144	0x3dd56f64	0.10421637
145	0xbd1e8dec	-0.038709566
146	0x3dcf38a9	0.10118229
147	0x3c4c560b	0.012471686
148	0x3e7dbb9e	0.24778602
149	0x3c9f05a3	0.019411867
150	0x3ebdf911	0.37104085
151	0x3cbf8cc4	0.023382552
152	0x3f0351bd	0.512966
153	0xbdb4727b	-0.08810898
154	0x3c9c87d6	0.01910774
155	0xbc01f9ae	-0.007933063
156	0x3ee21cc0	0.4416256
157	0x3d5a20a5	0.05325379
158	0x3eb61376	0.35561723
159	0x3ddbe385	0.10736755
160	0x3e40a75a	0.1881384
161	0xbe29773f	-0.16549395
162	0x3f567101	0.8376618
163	0xbdfec949	-0.12440736
164	0x3fb9a817	1.4504422
165	0xbe29d95a	-0.1658682
166	0x400412ee	2.0636554
167	0xbe004ecf	-0.12530063
168	0xbe833334	-0.25625002
169	0x3e091080	0.133852
170	0xbf0cfc0d	-0.550721
171	0x3f6e52da	0.9309517
172	0xbe918fa9	-0.28429917
173	0x3f5dcad7	0.86637634
174	0xbe75d123	-0.2400556
175	0x3f05f563	0.52327555
176	0xbdd46e22	-0.10372569
177	0x3f2465b9	0.64217716
178	0xbe75398d	-0.23947735
179	0x3fabc76e	1.3420236
180	0xbd8bcbae	-0.06825958
181	0x3f985d94	1.1903558
182	0xbdf61cbe	-0.12017201
183	0x3f8be159	1.0928146
184	0x3b3db0fe	0.0028944607
185	0x3f70c1dc	0.94045806
186	0x3cd54f62	0.02603883
187	0x3f248899	0.6427093
188	0xbe2021ab	-0.15637843
189	0x3f8900a2	1.0703318
190	0xbe13cf2a	-0.14434496
191	0x3f6ea324	0.9321768
192	0x3dbb000b	0.091308676
193	0x3f962aa5	1.1731764
194	0x3df784ae	0.120858535
195	0x3f64069b	0.8907258
196	0xbdc6000b	-0.09667977
197	0x3f3785c6	0.716885
198	0x3dd30ef5	0.10305587
199	0x3f49ff4b	0.7890517
200	0x3d2f509d	0.04280149
201	0x3f4d50c2	0.8020135
202	0xbe30329c	-0.17206806
203	0x3f0881cc	0.53323054
204	0x3dce527b	0.10074326
205	0x3f6a4abc	0.91520286
206	0xba9a9663	-0.0011794086
207	0x3f082c4f	0.5319261
208	0x3e31f96c	0.17380303
209	0x3f273863	0.65320414
210	0xbe5ea6d2	-0.21743324
211	0x3de93e24	0.113888055
212	0x3ea7dd28	0.32785916
213	0x3da50703	0.08057978
214	0x3ee02627	0.43779108
215	0x3f3b0987	0.7306141
216	0x3eb0130e	0.34389538
217	0x3f007a79	0.5018688
218	0x3e5bb22e	0.21454689
219	0x3eb4017d	0.35157385
220	0x3e7f6907	0.24942409
221	0x3ea8bc1a	0.3295601
222	0x3e3fdc63	0.18736415
223	0x3e1b899e	0.15189216
224	0x3e33de0d	0.17565174
225	0xbc841991	-0.016125472
226	0x3e2dbbaf	0.16966127
227	0xbd190a65	-0.03736343
228	0xbe6a3824	-0.22872978
229	0x3e4e56f4	0.20150357
230	0x3e80a769	0.25127724
231	0xbd9466a7	-0.07246142
232	0xbe476b9f	-0.19474648
233	0xbf8b51db	-1.0884355
234	0xbf55e7f4	-0.8355706
235	0xbfb05318	-1.3775358
236	0xbf823cb9	-1.0174781
237	0x3e42aca1	0.19011165
238	0x3ebc1fcf	0.36743018
239	0xbe0533ad	-0.13007994
240	0x3ea6216a	0.32447368
241	0xbf8b120a	-1.086488
242	0x3dccdfc5	0.10003618
243	0xbfa1ad8b	-1.2631086
244	0xbf231661	-0.6370602
245	0x3e01b9a6	0.12668476
246	0xbe226b62	-0.15861276
247	0xbe0291d2	-0.12750939
248	0xbef34e9c	-0.47520912
249	0xbe3e8be2	-0.18608049
250	0xbf403ba7	-0.7509102
251	0x3df8c189	0.12146289
252	0x3e341204	0.17584997
253	0xbe389d88	-0.18028843
254	0xbe9b9dd9	-0.30393866
255	0xbff0003c	-1.8750072

sequential/dense_1/MatMul f4 [10, 20]
0	0x3d497b97	0.04919013
1	0x3da38411	0.07984174
2	0x3f7e260d	0.9927681
3	0xbd50acb7	-0.050945964
4	0x3d14ea34	0.036356166
5	0x3f15d6cf	0.58530897
6	0xbe19c3d3	-0.15016107
7	0xbe780964	-0.24222332
8	0x3e159b41	0.14610006
9	0x3d934696	0.071911976
10	0x3f7f2084	0.9965899
11	0x3e161983	0.1465817
12	0x3d213220	0.039354444
13	0x3f870de4	1.0551114
14	0x3caf0b26	0.02136762
15	0xbf0ef6d7	-0.558454
16	0x3f9ad91e	1.2097509
17	0x3dc3ed15	0.09566704
18	0x3e083370	0.13300872
19	0x3f327503	0.69709796
20	0x3cdb158b	0.02674367
21	0x3fbb5980	1.4636688
22	0x3e37ab87	0.17936526
23	0x3fbd11e6	1.4771087
24	0x399e6201	0.00030209127
25	0xbdd5e03b	-0.10443159
26	0x3d48cd86	0.049024127
27	0xbe2cc42a	-0.16871706
28	0x3fba28c8	1.4543695
29	0xbdf14c3b	-0.11782118
30	0x3f93fd31	1.1561643
31	0x3d96c0b6	0.073609754
32	0x3f54f8c9	0.83192116
33	0x3eca1656	0.39470166
34	0xbc1a66a4	-0.0094238855
35	0x3f0140c0	0.50489426
36	0x3e0fb580	0.1403408
37	0xbe2d8dd2	-0.16948631
38	0x3de03b24	0.1094878
39	0x3f6869a0	0.9078617
40	0x3c5ada14	0.013357658
41	0x3dcbd80c	0.09953317
42	0xbd39654e	-0.045262627
43	0x3dee74c8	0.11643368
44	0x3df1bcb8	0.11803573
45	0x3f79588c	0.97400737
46	0xbee51827	-0.4474499
47	0x3d1ac26e	0.03778308
48	0x3f22f648	0.63657045
49	0xbc8b3ea2	-0.01699764
50	0xbe764f69	-0.2405373
51	0xbeca3afb	-0.39498124
52	0xbebcb004	-0.3685304
53	0x3e11bcfd	0.1423225
54	0x3deb6e76	0.11495678
55	0x400a1e36	2.158094
56	0xbe32b913	-0.17453413
57	0x3f9a7e67	1.2069825
58	0x3b54e937	0.003248764
59	0x3f81720e	1.0112932
60	0xbd8843f9	-0.0665359
61	0xbd095e0e	-0.033536963
62	0xbebbe373	-0.36696967
63	0x3cade298	0.021226212
64	0xbe1ceb7a	-0.15324202
65	0x3e792ea4	0.24334198
66	0x3f92e314	1.1475549
67	0x3f7e56d0	0.99351215
68	0x3e70a8e8	0.23501933
69	0xbddf1a36	-0.10893671
70	0x3f0a0673	0.5391609
71	0x3f9ee1e9	1.2412692
72	0x3f12edb9	0.57393986
73	0xbdf9d9df	-0.12199759
74	0xbe19c463	-0.15016322
75	0xbea28e5c	-0.31749237
76	0x3f5cc863	0.86243266
77	0xbb8b2739	-0.004246619
78	0xbdf28a28	-0.118427575
79	0x3f433507	0.7625279
80	0x3f7771e1	0.9665814
81	0x3ede161e	0.4337625
82	0xbf0b422f	-0.54397863
83	0x3f0a859b	0.54110116
84	0x3fba7bee	1.456907
85	0x3ed15cc3	0.40891084
86	0xbdbf92fb	-0.09354206
87	0x3f35bfa6	0.7099556
88	0x3db04042	0.08606006
89	0x3fce77c3	1.6130298
90	0xbea54010	-0.32275438
91	0x3de3de5a	0.111263946
92	0x3fb22ec9	1.3920528
93	0xbd2e80dc	-0.04260336
94	0x3fb7c577	1.4357136
95	0x3f8bf6d4	1.0934701
96	0xbb267bab	-0.0025403302
97	0xbf4fe699	-0.8121124
98	0x3fa6cf15	1.3031946
99	0x3ed71eac	0.42015588
100	0xbf98fc1b	-1.1951936
101	0x3f47d085	0.7805255
102	0x3fc8bd73	1.5682815
103	0x3f557233	0.8337738
104	0xbf8259c5	-1.0183645
105	0x3f28ad4c	0.6588943
106	0x3f0f48d5	0.5597051
107	0x3e74f847	0.23922835
108	0x3f96aac6	1.1770866
109	0xbea06624	-0.31327927
110	0xbecf9e4b	-0.40550455
111	0x3ed0bb84	0.40768063
112	0xbeb220e5	-0.34790722
113	0x3f7976f2	0.9744712
114	0xbf302a37	-0.68814415
115	0x3dc89a3f	0.09795045
116	0x3e48d3c9	0.1961204
117	0x3f6f928a	0.93582976
118	0xbe4daac0	-0.20084667
119	0xbecfc3f1	-0.4057918
120	0x3f45fc15	0.7733777
121	0xc021cd70	-2.528164
122	0x3ddd96ee	0.10819803
123	0xc014c201	-2.324341
124	0xbfc067d2	-1.5031683
125	0x3da2c976	0.07948582
126	0x3deb4cfa	0.114892915
127	0x3e466cc5	0.1937743
128	0x3e6c3033	0.23065262
129	0xbed4bdcd	-0.41551057
130	0x3f42743f	0.7595863
131	0x3e992189	0.29908398
132	0x3f022f84	0.50853753
133	0x3f02b9bb	0.5106465
134	0xbf1161f9	-0.5679012
135	0x3db26f4e	0.08712636
136	0xbd969793	-0.07353129
137	0x3e24f575	0.1610926
138	0x3e4f355c	0.20235199
139	0x3e9b059e	0.30277723
140	0x3dba9524	0.091104776
141	0x3f358dc4	0.7091944
142	0x3e7f7f6f	0.24950956
143	0x3f370992	0.7149898
144	0xbde630b0	-0.11239755
145	0x3dfc6e0a	0.12325676
146	0x3fdcff9c	1.7265506
147	0x3f252d91	0.64522654
148	0x3ef743ee	0.48294014
149	0x3ebb055b	0.36527523
150	0x3fb3ad27	1.4037217
151	0x3faf729e	1.3706853
152	0x3d0c59e3	0.03426541
153	0xbddc6271	-0.10760964
154	0xbce190a0	-0.027534783
155	0xbeaacb44	-0.33358204
156	0x3fa577fc	1.2927241
157	0x3d99ac27	0.075035386
158	0x3ecd5a7e	0.40108103
159	0x3d8a0294	0.06738773
160	0xbf902c2c	-1.126348
161	0xbd6a64d1	-0.057225052
162	0xbda79360	-0.081824064
163	0xbcd1592d	-0.025555218
164	0xbf3cd3f1	-0.73760897
165	0x3f2329c4	0.63735604
166	0xbfb0caf0	-1.3811932
167	0x3f62600b	0.884278
168	0x3e357e5b	0.17723982
169	0xbfc4de50	-1.5380344
170	0x3dab3833	0.083603285
171	0xbe8eaafd	-0.2786483
172	0xbc3ea1fb	-0.011635299
173	0x3dd5647b	0.10419556
174	0xbede4803	-0.43414316
175	0x3e3c7cfc	0.18407053
176	0x3e11cc5f	0.14238118
177	0xbe3887de	-0.18020579
178	0xbf1df942	-0.6170846
179	0x3f4460ca	0.7671019
180	0xbfbc8cc9	-1.4730464
181	0xbdd62dc9	-0.104579516
182	0x3f71a797	0.94396347
183	0x3d7175ac	0.05895011
184	0xbfd9a4ae	-1.7003381
185	0x3f951155	1.1645914
186	0x3f27dea7	0.65574116
187	0x3f1f9ebf	0.623516
188	0xbf0e1248	-0.55496645
189	0x3ee70029	0.4511731
190	0x3f52b0b1	0.8230086
191	0x3f12a4f1	0.5728293
192	0x3ecddf0f	0.40209243
193	0x3f49de72	0.7885505
194	0xbfeb182b	-1.836675
195	0xbedacb9e	-0.42733473
196	0x3f0b1b2d	0.5433834
197	0x3fc9ec27	1.5775193
198	0x3eb7d0dc	0.35901535
199	0xbda0f430	-0.07859075

sequential/dense_2/MatMul f4 [27, 10]
0	0x3ee7bd80	0.45261765
1	0x3f2b8308	0.6699681
2	0xbeb3d8a1	-0.35126212
3	0x3e9af199	0.3026245
4	0xbf06e5b8	-0.52694273
5	0xbe250420	-0.16114855
6	0xbea7cd78	-0.32773948
7	0xbd84ef3e	-0.06490944
8	0xbf9c0dd6	-1.2191722
9	0xbe632e78	-0.22185695
10	0xbcec85a5	-0.02887232
11	0xbec464bd	-0.38358107
12	0x3f274a88	0.653481
13	0xbebcdafa	-0.36885816
14	0xbf848a41	-1.0354692
15	0x3f011c6e	0.50434005
16	0x3cb1d663	0.021708673
17	0xbeff0e98	-0.49815822
18	0xbe792273	-0.24329548
19	0xbe374091	-0.17895724
20	0x3deb8d99	0.11501617
21	0xbf4d09e9	-0.80093247
22	0x3ce1a685	0.027545223
23	0xbdf64a6c	-0.120259136
24	0xbf7a39a4	-0.977442
25	0x3d5b4555	0.053532917
26	0x3e5a3475	0.21309073
27	0x3ea7b9ff	0.3275909
28	0xbf08a614	-0.53378415
29	0x3f09c654	0.5381825
30	0x3dddf9c8	0.108386576
31	0xbffe6b6f	-1.9876536
32	0xbed960ce	-0.4245667
33	0x3de27cf7	0.110589914
34	0xbf9705a6	-1.1798599
35	0x3e973239	0.29530504
36	0x3df3a9c5	0.11897615
37	0x3e707f32	0.23486021
38	0xbe8e9bd6	-0.27853268
39	0x3ea3ec45	0.32016197
40	0x3f20610e	0.62648094
41	0x3e416861	0.18887474
42	0x3e926e9d	0.28600016
43	0xbe2633eb	-0.16230743
44	0xbfbab61b	-1.4586824
45	0xbb3bb183	-0.002863974
46	0xbf57a9bd	-0.84243375
47	0xbcd7df19	-0.026351498
48	0x3e1c3b10	0.15256906
49	0xbe7f7359	-0.24946345
50	0xbe96173b	-0.29314598
51	0x3deafe6c	0.11474308
52	0x3f1840ad	0.5947369
53	0xbf80a9ae	-1.0051782
54	0xbf2f4cd0	-0.6847658
55	0x3f025251	0.50906855
56	0xbf35e05c	-0.7104547
57	0xbf0353bd	-0.5129965
58	0xbe46e5d9	-0.19423617
59	0x3dc0c9dc	0.094135016
60	0x3c20e6a5	0.009820615
61	0xbf3f9b51	-0.7484637
62	0xbf300cbb	-0.68769425
63	0x3e7919cd	0.24326248
64	0x3dbb0c1d	0.0913317
65	0xbf8c0eb1	-1.0941983
66	0xbf1cc86f	-0.6124334
67	0x3f161f63	0.5864164
68	0xbee72ea0	-0.4515276
69	0x3defd196	0.11709897
70	0x3e35e818	0.17764318
71	0xbf5f9af1	-0.87345797
72	0xbe822707	-0.254204
73	0x3d3b686a	0.045753874
74	0x3d8fedc8	0.07027775
75	0xbef36a88	-0.47542214
76	0xbe4d0d11	-0.20024516
77	0x3ecf9f36	0.40551156
78	0xbf308be6	-0.6896347
79	0x3ea868a4	0.32892334
80	0x3c81ac2c	0.015829168
81	0x3e167548	0.14693177
82	0xbe97d2f9	-0.29653147
83	0xbf3f0efb	-0.74632233
84	0xbefba864	-0.4915191
85	0x3f1f3663	0.6219236
86	0xbf1ff9fe	-0.6249083
87	0xbe172650	-0.14760709
88	0xbe4a8bba	-0.19779864
89	0xbec436bd	-0.38323012
90	0xbea4c348	-0.32180238
91	0x3f3fafa7	0.748774
92	0xbe0c6f39	-0.13714303
93	0xbff26f19	-1.8940154
94	0xbf10c754	-0.5655415
95	0x3e98376a	0.29729778
96	0x3ea3c811	0.31988576
97	0xbe42d35c	-0.1902594
98	0xbe3dd93a	-0.18539897
99	0xbe0e9de3	-0.13927417
100	0xbf75c592	-0.96004593
101	0x3dbb15ea	0.09135039
102	0x3e6e67a1	0.23281719
103	0x3dd691ad	0.10477004
104	0x3e3bea79	0.18351163
105	0xbeac0925	-0.33600727
106	0xc003a165	-2.0567257
107	0xbef0709d	-0.46960917
108	0x3f45a477	0.7720408
109	0xbedcbf0f	-0.43114516
110	0xbfc07461	-1.5035516
111	0x3eb7398c	0.35786092
112	0xbf411a62	-0.7543088
113	0x3f49d16f	0.78835195
114	0xbe4f2b42	-0.20231345
115	0xbe811399	-0.25210264
116	0xbf04cad1	-0.51871973
117	0x3e58e92f	0.21182702
118	0xbf0c0e93	-0.5470974
119	0xbfb7ea64	-1.4368405
120	0xbf2e4c4f	-0.6808519
121	0xbf42a042	-0.76025784
122	0xbf6c8dd0	-0.9240389
123	0xbec3161c	-0.38102806
124	0x3f1a6ea4	0.60325074
125	0xbf549ac8	-0.8304868
126	0x3e6af570	0.2294519
127	0xbedd52de	-0.43227285
128	0xbe5aa696	-0.2135261
129	0xbe30a1f8	-0.17249286
130	0xbf60d4f9	-0.8782497
131	0xbf08abbb	-0.5338704
132	0xbf1891c3	-0.59597415
133	0xbece9d03	-0.40354165
134	0x3f158a2f	0.58413976
135	0xbf4738e2	-0.7782117
136	0x3e235bff	0.15953062
137	0xbe88c4a6	-0.2671253
138	0xbe900185	-0.2812616
139	0xbe90bef0	-0.28270674
140	0x3d83defa	0.06439014
141	0xbf01f4d8	-0.50764227
142	0xbeaa6050	-0.33276606
143	0x3bdddd5a	0.006770772
144	0xbf7d13a1	-0.98858076
145	0x3c09a958	0.008402191
146	0xbd87eb9b	-0.06636735
147	0x3e953d0f	0.29148147
148	0xbeb3c0dc	-0.35108078
149	0x3f2f247d	0.6841505
150	0x3e2249f5	0.15848525
151	0xbf04cb96	-0.5187315
152	0xbec09bbb	-0.37618813
153	0x3ec9af8c	0.39391744
154	0x3eb0b07d	0.3450965
155	0xbfbfa57c	-1.4972377
156	0xbe9023f0	-0.28152418
157	0x3f31f4f6	0.69514406
158	0xbf81568a	-1.0104535
159	0xbf873082	-1.0561678
160	0x3f37d91f	0.71815675
161	0x3e1052d5	0.14094098
162	0x3e7ce9ee	0.24698612
163	0xbf1e5888	-0.6185384
164	0x3ec9896b	0.39362654
165	0xbf170c8e	-0.5900353
166	0xbd1c40d5	-0.038147766
167	0xbdc74541	-0.09730006
168	0xbf831585	-1.0240942
169	0xbf48ee72	-0.7848884
170	0x3d5cdf87	0.05392411
171	0xbf1f9b3b	-0.6234624
172	0x3e560a9b	0.20902483
173	0x3eb2ebf2	0.34945637
174	0xbf137cff	-0.57612604
175	0x3e069243	0.13141732
176	0xbde59a80	-0.11211109
177	0xbf0f0a96	-0.5587553
178	0x3ed1cd18	0.40976787
179	0xbf1c2ae7	-0.61002964
180	0x3f07a68f	0.52988523
181	0x3f38af76	0.7214273
182	0xbda0e1b5	-0.0785555
183	0xbf1e6786	-0.61876714
184	0xbedd228f	-0.4319043
185	0xbeb743fd	-0.35794058
186	0xbe7f6a99	-0.24943008
187	0x3e873556	0.2640788
188	0xbe108394	-0.14112693
189	0xbedecc67	-0.43515322
190	0xbe84346d	-0.25821248
191	0x3ed9799f	0.42475602
192	0xbea8f7b7	-0.3300149
193	0x3dcf45b1	0.101207145
194	0xbf1772ae	-0.5915936
195	0xbe11e265	-0.14246519
196	0xbe12d91c	-0.14340633
197	0x3f22082a	0.6329371
198	0xbf171f03	-0.59031695
199	0xbf2b05d6	-0.6680578
200	0x3f0a5f4e	0.54051673
201	0xbf4ead43	-0.80733126
202	0xbec3f5f0	-0.38273573
203	0x3ec7660c	0.38945043
204	0xbefb5c6e	-0.49093956
205	0xbf74a80b	-0.95568913
206	0x3f2ef9c0	0.6834984
207	0xbf0cd231	-0.55008227
208	0x3e8563a0	0.2605257
209	0x3ec9f916	0.3944785
210	0xbf336acf	-0.7008485
211	0xbf94abe6	-1.1614959
212	0x3eeb76d8	0.45989108
213	0x3e155b78	0.14585674
214	0x3e9eeafb	0.3103865
215	0xbf9eb300	-1.2398376
216	0xbe8a5cf9	-0.27024058
217	0xbfc7d39b	-1.5611452
218	0x3f6fa254	0.9360707
219	0xbe6e4ae0	-0.2327075
220	0xbecfd246	-0.40590113
221	0x3e02015a	0.12695828
222	0x3f50b384	0.8152392
223	0xbef60519	-0.48050764
224	0xbf903e93	-1.1269096
225	0x3ca83ca4	0.020536728
226	0x3eafe223	0.34352216
227	0xbf8a3e9d	-1.0800358
228	0x3ef33d42	0.47507674
229	0xbe07cfa4	-0.13262802
230	0xbeed2b8d	-0.4632229
231	0xbf8aa365	-1.0831114
232	0xbd02687c	-0.031837925
233	0x3f4d2162	0.80129063
234	0xbf0bdfe3	-0.546385
235	0xbdd73720	-0.10508561
236	0xbfca5175	-1.5806109
237	0x3eeb9671	0.46013215
238	0xbd2ceea8	-0.042219788
239	0xbf32e626	-0.6988243
240	0xbea2fb7c	-0.31832492
241	0x3e8393ec	0.25698793
242	0xbed0413c	-0.4067477
243	0xbee5ec60	-0.44906902
244	0xbf18354d	-0.5945633
245	0x3f1f41da	0.62209857
246	0x3dfe5df2	0.124202624
247	0x3e846ae0	0.2586279
248	0xbf9a5fc1	-1.2060472
249	0xbe31bea9	-0.17357887
250	0x3ea26ce5	0.31723705
251	0xbe0e83d3	-0.13917474
252	0xbf50c0ca	-0.8154417
253	0x3f10197a	0.56288874
254	0xbf033d51	-0.51265436
255	0xbf8caa0a	-1.0989392
