model/keypoint_classifier/keypoint_classifier.tflite (tflite, 6608 bytes, 6 tensors)

sequential/dense_2/BiasAdd/ReadVariableOp/resource f4 [10]
000000 d2 1f 34 be da 86 65 bf 8b 4b 83 3f 9e 78 3d bf
       -0.17590263 -0.8965889 1.0257429 -0.7401217
000010 86 67 8e bf d7 e7 7d bf 21 8b 92 3f 3d 6c 81 3f
       -1.1125343 -0.99181885 1.1448709 1.0111157
000020 69 d5 a9 3e 7d 23 c5 3d
       0.33170632 0.096259095

sequential/dense_1/BiasAdd/ReadVariableOp/resource f4 [10]
000000 12 df 26 bf 3d 40 99 3f 84 f1 ce 3d 69 4c c0 3e
       -0.6518413 1.1972729 0.10104659 0.37558296
000010 39 cd 90 3f 0c 66 c2 3d c7 b4 97 bf 50 b5 14 3e
       1.1312629 0.0949212 -1.1852044 0.1452229
000020 d7 fe 89 3f 0d d9 aa 3f
       1.0780896 1.3347489

sequential/dense/BiasAdd/ReadVariableOp/resource f4 [20]
000000 bb 6d 81 bf 2b b8 76 bf 1d eb 59 bf 94 ec 85 3f
       -1.0111612 -0.9637477 -0.8512438 1.0462823
000010 b9 82 47 bf 3f e2 bc bf 6d 7d 34 bf 53 2d 61 bf
       -0.7793384 -1.4756545 -0.70503885 -0.87959784
000020 07 17 29 be f9 cc 17 bf 79 d0 18 bf 8a 4c a3 3f
       -0.1651269 -0.5929714 -0.59693104 1.2757733
000030 73 6d 87 bf c6 83 2b bf 59 76 a1 3e 3f 75 58 bf
       -1.0580276 -0.66997945 0.31535605 -0.84553903
000040 52 20 36 bf 93 e9 91 bf 66 84 50 bf 70 2a 34 bf
       -0.71143067 -1.1399406 -0.81452024 -0.70377254

sequential/dense/MatMul f4 [20, 42]
000000 38 6e 5f bd 6a 00 89 3e 05 8e f1 3e 28 18 c8 3e
       -0.054548472 0.26758128 0.47178665 0.3908093
000010 23 4a 00 3f e2 d6 ce 3c 64 08 13 3f bd 2f 26 3b
       0.50113124 0.025248948 0.5743468 0.0025358044
000020 01 90 2a 3f 13 18 0f bd eb 90 64 be 16 6d 99 3c
       0.6662598 -0.03493507 -0.22320907 0.018728774
000030 82 2b 8f bd b9 3d ff 3c 56 e9 e3 bd 1a 04 12 3d
       -0.0699072 0.031157361 -0.1112849 0.035648443
000040 90 54 07 be ea b1 a0 3d 7c 3a 2d be 2a 66 89 bb
       -0.13215852 0.078464344 -0.16916841 -0.004193087
000050 41 ef 7c be 47 78 cf bb 2a 76 18 bf ed 28 d3 bd
       -0.24700643 -0.006331477 -0.59555304 -0.1031054
000060 83 4f 2d bf 91 b6 65 be 22 71 6d bc 02 c0 32 3d
       -0.6769945 -0.22432925 -0.014492305 0.043640144
000070 31 3c dc bd bf af 20 bd 1d e2 f5 be df 2d d6 bd
       -0.10753668 -0.039230105 -0.48024073 -0.10457968
000080 b0 1d 25 bf 78 96 07 be 99 e3 14 3e f1 4d 69 3d
       -0.64498425 -0.13240993 0.14539947 0.056959096
000090 2a 68 79 bd 6c 96 3c 3c 66 09 9e be b4 79 8d bd
       -0.060890354 0.011510473 -0.30866545 -0.06907979
0000a0 f9 4d 08 bf a2 67 98 bd 9c ab d7 3d 3f 84 22 be
       -0.53243977 -0.074416414 0.10530779 -0.1587076
0000b0 9b 69 13 3c 16 0f a4 3e c9 3e 17 3e ba 22 00 3e
       0.008997346 0.3204276 0.14770044 0.12513247
0000c0 b0 b0 76 3e 0b 66 8e 3d 13 e6 52 3e e5 d7 fb 3b
       0.24090838 0.06953057 0.20595579 0.0076856487
0000d0 bb 0c b6 3d 14 dc c2 bc 0e 50 51 3c 65 86 24 3d
       0.08889147 -0.023786582 0.012775434 0.04016723
0000e0 d6 05 66 bd 9b b2 2e 3d bd 69 ae bd cc 34 b9 3c
       -0.05615791 0.0426508 -0.08516262 0.022608183
0000f0 3f 40 23 3e bb 6c 33 3c 30 ed 9e 3d 3d 6c 6c 3d
       0.15942477 0.010951216 0.07760084 0.05772041
000100 62 5d 8c bd d4 f0 82 3d 74 3a 66 bd 62 f4 15 c0
       -0.06853749 0.063935906 -0.05620809 -2.343041
000110 52 ba c3 3d c1 cf 87 3d 63 22 5a 3c 19 c7 8b 3d
       0.09557022 0.06631423 0.0133138625 0.06825084
000120 57 93 2d bd 63 27 17 3d bd 46 7d bd 57 f9 56 bd
       -0.042376842 0.036902796 -0.06183504 -0.052483883
000130 77 23 a3 3d 9b 91 05 3e b1 81 55 3c 64 e1 12 3e
       0.07965749 0.13043825 0.013031409 0.14343792
000140 56 02 00 bc db 44 10 3e e0 2b ce bb a0 8b 06 3e
       -0.007813057 0.14088766 -0.0062918514 0.131392
000150 77 67 2f be 10 4e 4a be 15 7f 2d 3f 2d e3 30 be
       -0.17129312 -0.19756341 0.67772037 -0.1727416
000160 a8 99 01 3f e4 45 07 be 93 a9 2c 3f 2f 9d 94 bd
       0.50625086 -0.13210255 0.6744625 -0.07256543
000170 f4 e5 b3 3f 24 bc 94 bd 27 3b 9f bd 6c a5 da bb
       1.4054551 -0.072624475 -0.07774954 -0.006672552
000180 4f b7 87 3d 68 ca 37 3c 66 3e 50 3e 36 ab 29 bd
       0.0662676 0.011217691 0.20336303 -0.041423045
000190 24 01 70 3e 12 1a 08 bd b4 d9 8e be 60 1b 38 bb
       0.23437935 -0.033227988 -0.2790047 -0.0028092489
0001a0 a4 bd 8b be f1 b2 1d 3d a5 0f a7 be 2c ba 6e 3d
       -0.27293122 0.03850073 -0.32629123 0.058283016
0001b0 fe 03 be be bf 1c 1c 3d 53 c3 d9 be fd ca f5 3b
       -0.3711242 0.038113352 -0.42531833 0.0075010047
0001c0 da bb 85 be b1 c7 24 3d 9a a9 73 be 20 28 fc 3d
       -0.26119882 0.040229503 -0.23795167 0.12312341
0001d0 d5 a1 6b be d8 3a 1e 3e 18 9a 50 be 1e ce 37 3c
       -0.23010953 0.15452135 -0.20371282 0.011218576
0001e0 19 13 f3 be 05 a0 ea 39 48 91 07 bf 05 0a 37 bd
       -0.47475508 0.00044751182 -0.52956057 -0.04468729
0001f0 8c 4e 3f bf 90 d4 44 3d 60 25 d5 bd 88 54 3a 3e
       -0.7472923 0.048054278 -0.10407519 0.18196309
000200 90 1d 65 bf 44 d4 8a 3f e2 6a 51 bf 78 46 00 3f
       -0.89498234 1.0846028 -0.81803715 0.50107527
000210 ab fd 06 bf 75 11 af 3e 9a c5 6f 3e 7c c7 86 3e
       -0.52730817 0.34193006 0.23415223 0.2632407
000220 d2 02 86 3d 03 cf b3 3d b0 90 82 bc 97 ba a1 3c
       0.06543507 0.08779719 -0.015938133 0.019742293
000230 9d 9e e4 3d 6a d6 5b 3b ec ae 1d 3e 19 be a1 ba
       0.111630656 0.0033544549 0.15398759 -0.0012339979
000240 4c f0 9f 3e 02 19 69 3c 26 35 fc 3d 19 e0 c7 3d
       0.3123802 0.014227154 0.12314825 0.0975954
000250 0a 70 2a bd ba 72 4d 3e 89 fe a7 bd 6e e1 32 3e
       -0.041610755 0.20063296 -0.082028456 0.17468807
000260 d7 96 dd 3e 9a 62 22 3d 2f c2 47 bd f6 6c 11 3e
       0.43279144 0.039644815 -0.048769172 0.14201722
000270 9c a0 93 be 45 30 60 3e 66 01 a9 be f9 aa 5a 3e
       -0.28833473 0.21893413 -0.3300888 0.21354283
000280 b4 5f 9c 3e 36 68 c2 ba 71 18 cb bc 1f 53 2e 3e
       0.30541766 -0.0014832083 -0.024791928 0.17023896
000290 8b f8 77 be f4 60 91 3e e7 7c 81 be 7f 59 21 3e
       -0.24215905 0.28394282 -0.25290605 0.15756796
0002a0 0e 11 e8 bd a4 d2 4a 3e 14 8d 2a bf 80 a5 cd 3d
       -0.11331378 0.19806916 -0.6662152 0.10041332
0002b0 8a 06 e7 be 3b 58 5a bd 44 ac 29 bf bf 35 dd bd
       -0.45122176 -0.0533068 -0.6627848 -0.10801267
0002c0 dc 3d 73 bf 87 16 4b bd cb 0a e7 bd 99 f8 e2 bd
       -0.95016265 -0.04958203 -0.112813555 -0.110825725
0002d0 59 02 08 bd c1 06 2d be 96 86 2f 3c 38 e0 e9 bd
       -0.033205364 -0.16897108 0.01071324 -0.114197195
0002e0 5f bc 8f 3d 60 6d 2c bd 1f d3 93 be 2a e2 a0 bd
       0.07018351 -0.042096496 -0.2887201 -0.07855637
0002f0 46 02 38 bd c1 00 29 be 3b 8b ef bd 2d 5e fb bd
       -0.044924043 -0.16504194 -0.11696478 -0.12273822
000300 3e 27 2d be 7a d4 24 bd 2c ae 85 be 82 28 5f bd
       -0.16909501 -0.040241696 -0.26109445 -0.05448199
000310 f5 e2 47 be 0b 32 06 be 56 f5 b0 be e6 8c 8f bd
       -0.19520171 -0.13105027 -0.34562176 -0.07009296
000320 63 87 00 bf 36 41 7e 3d 23 ea 9b be 79 57 be bd
       -0.50206584 0.06207391 -0.3045207 -0.09294028
000330 52 8b e0 bd 72 3c 53 bd 1a 42 b2 bc 9a 45 b2 3d
       -0.10964073 -0.051571317 -0.021760035 0.08704682
000340 e9 ca b9 bb 1e bd 5b 3e 00 47 92 3a 34 c8 9e be
       -0.0056699407 0.21458861 0.0011160076 -0.31012118
000350 fb c7 db 3e dc 21 3c bf 26 ef c9 3d a6 59 0a bf
       0.4292601 -0.73489165 0.09860067 -0.5404304
000360 f9 a8 8e 3d 40 c8 43 be b2 16 09 3f 59 1b 97 bd
       0.06965823 -0.19119358 0.53550255 -0.07378263
000370 65 70 e7 3d ed cb 00 be ff 44 8e 3c f6 03 29 be
       0.113007344 -0.12577792 0.017366884 -0.16505417
000380 40 5a 26 3a bd f4 a6 bd 23 14 ea bb 51 d6 87 bc
       0.0006345846 -0.08152149 -0.0071435138 -0.016581686
000390 4e 0b 8a 3d f3 f5 4b bd e4 0c 4b 3d f5 b8 0b be
       0.067404374 -0.049795102 0.04957284 -0.13644774
0003a0 85 1d 34 3e d0 05 bc bd 21 4c 80 3e a4 90 dd bc
       0.17589386 -0.09180796 0.25058082 -0.02704651
0003b0 37 9c 02 3d 31 c9 ca bc 59 29 3a 3d 52 a9 a4 bd
       0.03188726 -0.024754139 0.04544959 -0.08040108
0003c0 30 36 9e 3e 1e 18 c5 bd 3b 01 18 3f b8 69 ce bd
       0.30900717 -0.096237406 0.5937688 -0.10078758
0003d0 78 c2 1f bc 5f e2 95 3c 5f 27 d8 bb 94 21 2e 3b
       -0.009750955 0.018296419 -0.0065964903 0.0026570307
0003e0 67 10 09 bd 86 79 2e 3d e0 a5 46 bc 4b 8d 4b 3d
       -0.033462908 0.042596363 -0.012124509 0.049695294
0003f0 3c 21 91 3e 00 db 10 bc dd 09 11 3e 45 2a 4a 3e
       0.28345668 -0.008841276 0.14163919 0.19742687

sequential/dense_1/MatMul f4 [10, 20]
000000 40 e9 7e 3f 99 63 e7 3f 12 74 3e 3f 33 28 48 3c
       0.9957466 1.807727 0.7439586 0.0122166155
000010 68 31 60 3f 66 e9 e2 3f 73 6c 5f 3f e9 cd de 3e
       0.8757539 1.7727478 0.87274855 0.43516472
000020 ee dc f3 bd 8f 66 89 3d 06 f4 7e 3e 02 75 92 be
       -0.11907373 0.067090146 0.24897775 -0.28604895
000030 a8 d4 b0 3e 94 6e 64 3d bb d7 94 3c 5d 1f 83 3f
       0.34537244 0.055769518 0.018169275 1.0243946
000040 4f 94 87 3f 03 56 92 3e 79 55 4c 3f be ed 8f 3f
       1.0592135 0.28581247 0.7981792 1.1244428
000050 e6 0e 1d bf 4f 0d fe 3e f2 14 09 be ae aa 37 bd
       -0.6135086 0.4961953 -0.13386896 -0.044840507
000060 04 17 6c bd b9 ad 2a 3f 04 bb 74 bf 14 46 2d 3e
       -0.057639137 0.6667133 -0.95597863 0.16921264
000070 47 0c 1f 3e c8 33 2b 3f f5 63 44 bd e4 a8 89 bf
       0.15532027 0.66875887 -0.04794689 -1.0754666
000080 3a 92 9c bd 78 78 21 3f b4 32 3e 3f 76 33 99 bf
       -0.07645078 0.63074446 0.74296117 -1.196883
000090 8a 2b 3c 3e 5a 00 ae 3e 35 f7 54 3f 28 c0 70 3e
       0.18375984 0.33984643 0.8318971 0.23510802
0000a0 55 f1 24 3f 0b af 2b 3d 53 fd 2d 3f 06 3d 89 3f
       0.64430743 0.04191498 0.6796467 1.0721748
0000b0 1f 70 31 3f 85 60 a3 3f 56 f1 64 3e 00 b0 07 3e
       0.6931171 1.276383 0.22357687 0.13250732
0000c0 f9 bb 19 3f 65 e9 9a 3f 54 40 0f bf 2a 14 dd 3e
       0.6005245 1.2102476 -0.5595753 0.43179446
0000d0 38 09 6d 3f 69 94 9d be 01 8a ee 3e 06 da 75 3f
       0.9259219 -0.3077729 0.46589664 0.960358
0000e0 15 57 b2 3e e0 75 31 be bc 70 9a 3f 4a 31 e4 3e
       0.34832063 -0.17330122 1.2065654 0.44568855
0000f0 db 81 62 3d f2 2d d0 bd 55 ef 35 3f 05 e9 88 3f
       0.05529962 -0.101650134 0.71068317 1.0696112
000100 eb 77 02 3f 0c 50 37 3e 10 5d a6 3e 91 72 eb 3b
       0.5096423 0.17901629 0.32492876 0.0071852882
000110 eb 5c b0 bd 99 dd 9f 3f 8e 71 bb 3d f0 d8 ab 3f
       -0.08611473 1.2489501 0.09152518 1.3425579
000120 58 fe 8b 3f 6c d0 94 3e c0 c2 8a 3f 74 35 90 3c
       1.0936995 0.29065263 1.0840683 0.017603613
000130 dd b4 af 3e d7 55 e1 be e8 48 6c 3d 96 78 c5 3e
       0.34317675 -0.44010803 0.057686716 0.38568562
000140 a4 49 5e be e1 7c c3 3f 36 3e 91 bd 7e 9a 19 bf
       -0.21707779 1.5272485 -0.07091944 -0.6000136
000150 95 ed 07 be 01 7d 3c bd 37 bc 15 bf a0 a0 bd bc
       -0.13274224 -0.04601765 -0.5849032 -0.023147881
000160 9a e2 1e be 1c 35 82 3d 93 63 20 be 41 c3 3f bf
       -0.15516129 0.06357786 -0.15662985 -0.7490731
000170 2b 8f 55 3e ff c1 18 3f ac bc 2b bf ea 23 d8 bd
       0.20855395 0.59671015 -0.67084765 -0.10553725
000180 f7 42 72 be 8c 9a 40 3d 7d 6d 65 be 39 af 8f 3f
       -0.23658358 0.047022387 -0.22405048 1.1225349
000190 45 82 76 3f 5b eb 30 bd 1c 41 fc 3e f9 06 e5 3e
       0.96292526 -0.043193202 0.49268425 0.44731882
0001a0 d9 e6 9a be 82 fb 89 3f 1e 95 54 3f 67 b6 84 3e
       -0.30254248 1.0779879 0.83040035 0.25920412
0001b0 db 4d 64 3f 00 20 ad 3e 7f 2b d2 3e 97 28 f3 3e
       0.891813 0.33813477 0.4104881 0.47491905
0001c0 67 64 16 bf b2 b7 88 bc d5 82 87 3e 76 b8 4e 3f
       -0.5874695 -0.016689155 0.26467004 0.80750215
0001d0 02 8f 98 3f ef 8e 35 3f 87 2e 77 3e f6 74 1c bd
       1.1918643 0.70921224 0.24138843 -0.03819748
0001e0 56 c4 93 3e fc d8 b9 3e 53 39 f9 3e 4d 36 01 3f
       0.2886073 0.36298358 0.48676547 0.5047348
0001f0 cb 50 23 3d 6a be da 3d 3f c7 56 3e 81 5c d9 bd
       0.039871972 0.1068085 0.20974444 -0.10613347
000200 9c a7 88 3e 1e fb 06 3f 8c 97 07 b8 38 8c 3f 3f
       0.26690376 0.52726924 -3.2327647e-05 0.7482333
000210 76 8c 08 3d 52 00 ae 3f 4f a5 95 3e df 21 22 be
       0.03333708 1.3593848 0.29227683 -0.15833233
000220 83 a5 c3 bd 5f 9c 66 3f b6 8e 21 be ea c7 97 be
       -0.09553053 0.90082353 -0.15777096 -0.2964471
000230 cc 6a 6d 3e f3 bd 14 be 49 6c bb 3e ac 5a f8 3c
       0.23185271 -0.14525585 0.36606053 0.030316673
000240 25 b2 ba 3e d1 a5 f5 3e f9 5c e7 3b 0e ee 9f 3f
       0.36464038 0.4797807 0.0070606438 1.2494524
000250 65 58 1b bf 17 f6 c2 3e 31 6c 8c 3f 9c c2 68 3d
       -0.60681754 0.38078377 1.0970517 0.05682622
000260 34 d3 78 3f 1a e2 be 3e 91 8c 5a bf 3b 10 6d 3e
       0.9719727 0.37281877 -0.8537074 0.23150723
000270 88 d1 7a 3d 2a f3 09 3f 62 70 5a bf 3c 54 11 3e
       0.06123498 0.53886664 -0.8532773 0.14192289
000280 1f 8c 14 3e 60 a6 18 3e d2 2d b4 3f f3 c4 71 bf
       0.14506577 0.14907217 1.4076483 -0.94441146
000290 26 76 97 3d fc e6 c6 3c 4c fe 19 3f 22 ae 3e 3f
       0.07395582 0.024280064 0.6015365 0.74484456
0002a0 9c b8 1e 3f 1a d9 f7 be a2 0f 2d 3f 46 d9 e1 bd
       0.6200044 -0.48407823 0.6760198 -0.1102777
0002b0 3a f9 85 bd a2 c7 1e be b1 33 c8 be 13 27 4a bd
       -0.06541677 -0.15505841 -0.39101937 -0.04935367
0002c0 00 d6 72 3e 7f dd 7a 3f 3d 1c 82 be d9 9a 09 3f
       0.23714447 0.97994226 -0.2541217 0.53751904
0002d0 83 e3 08 be 4b 5f 7d 3e f0 ea 49 be e8 a1 83 3e
       -0.13368039 0.24743383 -0.19718528 0.25709462
0002e0 29 ad f9 3d 96 1e 24 3f ba 86 f3 be 2b 62 70 3f
       0.12191231 0.6410917 -0.47563726 0.9389979
0002f0 9e ca 92 3e 01 b8 98 3e 18 cf 1b c0 3f b2 42 3e
       0.2867021 0.29827884 -2.434515 0.19013308
000300 3e ac 5d 3e 4b af 8d be 09 c7 9c 3e 86 a0 35 3e
       0.21647736 -0.276728 0.30620602 0.17737016
000310 fd d8 84 be 87 da 99 3f 88 a3 4e 3e 10 f5 35 bf
       -0.259468 1.2019814 0.2017957 -0.7107706

sequential/dense_2/MatMul f4 [10, 10]
000000 6d 67 f2 3d e5 4a 2b be e9 ac a1 3e 3e a9 0a 3f
       0.11836133 -0.16727789 0.31577232 0.54164493
000010 c0 bf dd 3e 30 98 04 3f e6 3c 68 3f 29 18 54 bf
       0.43310356 0.5179472 0.90717924 -0.82849365
000020 39 5d 93 be 67 e3 1d bf 94 c6 9a bd d6 46 ea 3d
       -0.2878206 -0.61675113 -0.07557407 0.11439292
000030 db 4c 85 3e 03 0b ab 3e de 81 08 bf d1 95 d0 bd
       0.260352 0.3340684 -0.5332316 -0.10184825
000040 f1 c1 6c 3f a9 54 fe bb 74 99 0b bd 2e 9d 45 3f
       0.9248343 -0.007761557 -0.03408189 0.7719296
000050 eb a3 87 bf 00 c6 3f bf 4a 31 2f 3f 7a f4 17 3f
       -1.0596899 -0.749115 0.68434584 0.59357417
000060 fd 0b b0 be 45 3e f8 be 9d 85 6e be 58 e4 4c bf
       -0.34384146 -0.48485008 -0.23293157 -0.80035925
000070 34 23 01 bf 23 ee 82 3f 34 b4 b7 bd 4b 7e 02 3f
       -0.5044434 1.0228924 -0.08969918 0.5097396
000080 c1 b5 df bd 6c 71 6e 3f bf e3 51 bf 3a 73 33 be
       -0.10923339 0.9314182 -0.8198814 -0.17524424
000090 55 6e e9 bc 5f 70 bc 3e 70 0e 33 bd 85 7a 91 bf
       -0.028494993 0.36804482 -0.04371494 -1.1365515
0000a0 c4 38 f2 3e bf ca ba 3e ab e6 16 3f 48 5c ed be
       0.47308934 0.36482808 0.5894572 -0.46359468
0000b0 60 73 7b bd 59 3b d5 bd 88 d2 d8 3e 88 56 95 3f
       -0.061389327 -0.1041171 0.42348123 1.1667032
0000c0 d4 71 bb bf ac c2 54 bf 3b 2d 73 3f a9 07 23 3e
       -1.4644113 -0.83109546 0.9499089 0.15920891
0000d0 34 f9 22 3e 1c 26 7c bf 02 f3 7c bf bc fc e5 bb
       0.15915376 -0.9849565 -0.988083 -0.0070186537
0000e0 d7 ab dc be a1 f3 ec bd 5b 76 0a 3f 29 3a 0d bf
       -0.43099853 -0.11569906 0.54086846 -0.5516687
0000f0 18 cc 9e 3c 69 9a 5d 3f 58 07 c4 be c6 9d 5b be
       0.019384429 0.86563736 -0.38286853 -0.21446905
000100 f5 7e 9c 3e bf bb 27 c0 06 04 a4 3e 58 be fc be
       0.3056561 -2.620834 0.3203432 -0.4936397
000110 c5 7a 39 bd f7 fe a4 bf 52 86 82 bf 85 e4 8e 3f
       -0.045283098 -1.2890309 -1.0197241 1.1163489
000120 a0 fc 97 c0 14 1d 56 c0 81 eb 32 3f 03 e4 32 c0
       -4.749588 -3.3455248 0.698906 -2.7951667
000130 c6 46 0e bf 88 01 30 c0 a3 1e 0f 3f 27 b4 55 3f
       -0.5557674 -2.7500935 0.5590612 0.83478016
000140 8d 29 5e be 92 32 42 bf c3 6d fa be a8 35 36 3d
       -0.21695538 -0.75858414 -0.48911867 0.044484764
000150 10 ef fb bf 9c 54 70 3f 6e 3a 2a be fd 54 ba 3e
       -1.9682331 0.93879104 -0.16623852 0.36392966
000160 36 a9 16 3f 76 79 a3 3d 9f 9a 13 c0 43 69 eb bc
       0.58851945 0.07982151 -2.3063123 -0.028736716
000170 b5 e6 47 bf 6f d3 48 3f 60 07 4b 3f 7c 76 8b bf
       -0.78086406 0.7844762 0.7930813 -1.0895534
000180 87 f2 00 c0 7c 54 24 3f 4c 85 6c 3f 55 a9 f4 be
       -2.0148027 0.6419141 0.92390895 -0.4778544
